        (1): Tanh()
      )
    )
    (35): ResidualBlock(
      (block): Sequential(
        (0): Linear(in_features=700, out_features=700, bias=True)
        (1): Tanh()
      )
    )
    (36): ResidualBlock(
      (block): Sequential(
        (0): Linear(in_features=700, out_features=700, bias=True)
        (1): Tanh()
      )
    )
    (37): ResidualBlock(
      (block): Sequential(
        (0): Linear(in_features=700, out_features=700, bias=True)
        (1): Tanh()
      )
    )
    (38): ResidualBlock(
      (block): Sequential(
        (0): Linear(in_features=700, out_features=700, bias=True)
        (1): Tanh()
      )
    )
    (39): ResidualBlock(
      (block): Sequential(
        (0): Linear(in_features=700, out_features=700, bias=True)
        (1): Tanh()
      )
    )
    (40): ResidualBlock(
      (block): Sequential(
        (0): Linear(in_features=700, out_features=700, bias=True)
        (1): Tanh()
      )
    )
    (41): ResidualBlock(
      (block): Sequential(
        (0): Linear(in_features=700, out_features=700, bias=True)
        (1): Tanh()
      )
    )
    (42): ResidualBlock(
      (block): Sequential(
        (0): Linear(in_features=700, out_features=700, bias=True)
        (1): Tanh()
      )
    )
    (43): ResidualBlock(
      (block): Sequential(
        (0): Linear(in_features=700, out_features=700, bias=True)
        (1): Tanh()
      )
    )
    (44): ResidualBlock(
      (block): Sequential(
        (0): Linear(in_features=700, out_features=700, bias=True)
        (1): Tanh()
      )
    )
    (45): ResidualBlock(
      (block): Sequential(
        (0): Linear(in_features=700, out_features=700, bias=True)
        (1): Tanh()
      )
    )
    (46): ResidualBlock(
      (block): Sequential(
        (0): Linear(in_features=700, out_features=700, bias=True)
        (1): Tanh()
      )
    )
    (47): ResidualBlock(
      (block): Sequential(
        (0): Linear(in_features=700, out_features=700, bias=True)
        (1): Tanh()
      )
    )
    (48): ResidualBlock(
      (block): Sequential(
        (0): Linear(in_features=700, out_features=700, bias=True)
        (1): Tanh()
      )
    )
    (49): ResidualBlock(
      (block): Sequential(
        (0): Linear(in_features=700, out_features=700, bias=True)
        (1): Tanh()
      )
    )
  )
  (output_layer): Linear(in_features=700, out_features=1, bias=True)
)]
Epoch 0, Loss: 1.0371280908584595, Normalised losses: [1.0371280908584595], Regularisation term values: [], param norm: 32.85740661621094, Learning Rate: 0.0001, len(model.parameters()): 104,
Epoch 10, Loss: 0.962385892868042, Normalised losses: [0.962385892868042], Regularisation term values: [], param norm: 7.968000888824463, Learning Rate: 0.0001, len(model.parameters()): 104,
…
Epoch 480, Loss: 0.04275079071521759, Normalised losses: [0.04275079071521759], Regularisation term values: [], param norm: 9.02259635925293, Learning Rate: 3.874204890000002e-05, len(model.parameters()): 104,
Epoch 490, Loss: 0.06179407611489296, Normalised losses: [0.06179407611489296], Regularisation term values: [], param norm: 13.589322090148926, Learning Rate: 3.874204890000002e-05, len(model.parameters()): 104,
Scores:
 [[0.01851004]]
Correlations between models and analytical eigenfunction: [tensor(0.4585)]
[2025-04-08 17:15:09,569][HYDRA]        #3 : separatrix_locator_fit_kwargs.gmm_mix_ratio=0.2
[DeepResNet(
  (input_layer): Linear(in_features=10, out_features=700, bias=True)
  (residual_layers): Sequential(
    (0): ResidualBlock(
      (block): Sequential(
        (0): Linear(in_features=700, out_features=700, bias=True)
        (1): Tanh()
      )
    )
    (1): ResidualBlock(
      (block): Sequential(
        (0): Linear(in_features=700, out_features=700, bias=True)
        (1): Tanh()
      )
    )
    (2): ResidualBlock(
      (block): Sequential(
        (0): Linear(in_features=700, out_features=700, bias=True)
        (1): Tanh()
      )
    )
    (3): ResidualBlock(
      (block): Sequential(
        (0): Linear(in_features=700, out_features=700, bias=True)
        (1): Tanh()
      )
    )
    (4): ResidualBlock(
      (block): Sequential(
        (0): Linear(in_features=700, out_features=700, bias=True)
        (1): Tanh()
      )
    )
    (5): ResidualBlock(
      (block): Sequential(
        (0): Linear(in_features=700, out_features=700, bias=True)
        (1): Tanh()
      )
    )
    (6): ResidualBlock(
      (block): Sequential(
        (0): Linear(in_features=700, out_features=700, bias=True)
        (1): Tanh()
      )
    )
    (7): ResidualBlock(
      (block): Sequential(
        (0): Linear(in_features=700, out_features=700, bias=True)
        (1): Tanh()
      )
    )
    (8): ResidualBlock(
      (block): Sequential(
        (0): Linear(in_features=700, out_features=700, bias=True)
        (1): Tanh()
      )
    )
    (9): ResidualBlock(
      (block): Sequential(
        (0): Linear(in_features=700, out_features=700, bias=True)
        (1): Tanh()
      )
    )
    (10): ResidualBlock(
      (block): Sequential(
        (0): Linear(in_features=700, out_features=700, bias=True)
        (1): Tanh()
      )
    )
    (11): ResidualBlock(
      (block): Sequential(
        (0): Linear(in_features=700, out_features=700, bias=True)
        (1): Tanh()
      )
    )
    (12): ResidualBlock(
      (block): Sequential(
        (0): Linear(in_features=700, out_features=700, bias=True)
        (1): Tanh()
      )
    )
    (13): ResidualBlock(
      (block): Sequential(
        (0): Linear(in_features=700, out_features=700, bias=True)
        (1): Tanh()
      )
    )
    (14): ResidualBlock(
      (block): Sequential(
        (0): Linear(in_features=700, out_features=700, bias=True)
        (1): Tanh()
      )
    )
    (15): ResidualBlock(
      (block): Sequential(
        (0): Linear(in_features=700, out_features=700, bias=True)
        (1): Tanh()
      )
    )
    (16): ResidualBlock(
      (block): Sequential(
        (0): Linear(in_features=700, out_features=700, bias=True)
        (1): Tanh()
      )
    )
    (17): ResidualBlock(
      (block): Sequential(
        (0): Linear(in_features=700, out_features=700, bias=True)
        (1): Tanh()
      )
    )
    (18): ResidualBlock(
      (block): Sequential(
        (0): Linear(in_features=700, out_features=700, bias=True)
        (1): Tanh()
      )
    )
    (19): ResidualBlock(
      (block): Sequential(
        (0): Linear(in_features=700, out_features=700, bias=True)
        (1): Tanh()
      )
    )
    (20): ResidualBlock(
      (block): Sequential(
        (0): Linear(in_features=700, out_features=700, bias=True)
        (1): Tanh()
      )
    )
    (21): ResidualBlock(
      (block): Sequential(
        (0): Linear(in_features=700, out_features=700, bias=True)
        (1): Tanh()
      )
    )
    (22): ResidualBlock(
      (block): Sequential(
        (0): Linear(in_features=700, out_features=700, bias=True)
        (1): Tanh()
      )
    )
    (23): ResidualBlock(
      (block): Sequential(
        (0): Linear(in_features=700, out_features=700, bias=True)
        (1): Tanh()
      )
    )
    (24): ResidualBlock(
      (block): Sequential(
        (0): Linear(in_features=700, out_features=700, bias=True)
        (1): Tanh()
      )
    )
    (25): ResidualBlock(
      (block): Sequential(
        (0): Linear(in_features=700, out_features=700, bias=True)
        (1): Tanh()
      )
    )
    (26): ResidualBlock(
      (block): Sequential(
        (0): Linear(in_features=700, out_features=700, bias=True)
        (1): Tanh()
      )
    )
    (27): ResidualBlock(
      (block): Sequential(
        (0): Linear(in_features=700, out_features=700, bias=True)
        (1): Tanh()
      )
    )
    (28): ResidualBlock(
      (block): Sequential(
        (0): Linear(in_features=700, out_features=700, bias=True)
        (1): Tanh()
      )
    )
    (29): ResidualBlock(
      (block): Sequential(
        (0): Linear(in_features=700, out_features=700, bias=True)
        (1): Tanh()
      )
    )
    (30): ResidualBlock(
      (block): Sequential(
        (0): Linear(in_features=700, out_features=700, bias=True)
        (1): Tanh()
      )
    )
    (31): ResidualBlock(
      (block): Sequential(
        (0): Linear(in_features=700, out_features=700, bias=True)
        (1): Tanh()
      )
    )
    (32): ResidualBlock(
      (block): Sequential(
        (0): Linear(in_features=700, out_features=700, bias=True)
        (1): Tanh()
      )
    )
    (33): ResidualBlock(
      (block): Sequential(
        (0): Linear(in_features=700, out_features=700, bias=True)
        (1): Tanh()
      )
    )
    (34): ResidualBlock(
      (block): Sequential(
        (0): Linear(in_features=700, out_features=700, bias=True)
        (1): Tanh()
      )
    )
    (35): ResidualBlock(
      (block): Sequential(
        (0): Linear(in_features=700, out_features=700, bias=True)
        (1): Tanh()
      )
    )
    (36): ResidualBlock(
      (block): Sequential(
        (0): Linear(in_features=700, out_features=700, bias=True)
        (1): Tanh()
      )
    )
    (37): ResidualBlock(
      (block): Sequential(
        (0): Linear(in_features=700, out_features=700, bias=True)
        (1): Tanh()
      )
    )
    (38): ResidualBlock(
      (block): Sequential(
        (0): Linear(in_features=700, out_features=700, bias=True)
        (1): Tanh()
      )
    )
    (39): ResidualBlock(
      (block): Sequential(
        (0): Linear(in_features=700, out_features=700, bias=True)
        (1): Tanh()
      )
    )
    (40): ResidualBlock(
      (block): Sequential(
        (0): Linear(in_features=700, out_features=700, bias=True)
        (1): Tanh()
      )
    )
    (41): ResidualBlock(
      (block): Sequential(
        (0): Linear(in_features=700, out_features=700, bias=True)
        (1): Tanh()
      )
    )
    (42): ResidualBlock(
      (block): Sequential(
        (0): Linear(in_features=700, out_features=700, bias=True)
        (1): Tanh()
      )
    )
    (43): ResidualBlock(
      (block): Sequential(
        (0): Linear(in_features=700, out_features=700, bias=True)
        (1): Tanh()
      )
    )
    (44): ResidualBlock(
      (block): Sequential(
        (0): Linear(in_features=700, out_features=700, bias=True)
        (1): Tanh()
      )
    )
    (45): ResidualBlock(
      (block): Sequential(
        (0): Linear(in_features=700, out_features=700, bias=True)
        (1): Tanh()
      )
    )
    (46): ResidualBlock(
      (block): Sequential(
        (0): Linear(in_features=700, out_features=700, bias=True)
        (1): Tanh()
      )
    )
    (47): ResidualBlock(
      (block): Sequential(
        (0): Linear(in_features=700, out_features=700, bias=True)
        (1): Tanh()
      )
    )
    (48): ResidualBlock(
      (block): Sequential(
        (0): Linear(in_features=700, out_features=700, bias=True)
        (1): Tanh()
      )
    )
    (49): ResidualBlock(
      (block): Sequential(
        (0): Linear(in_features=700, out_features=700, bias=True)
        (1): Tanh()
      )
    )
  )
  (output_layer): Linear(in_features=700, out_features=1, bias=True)
)]
Epoch 0, Loss: 1.0404497385025024, Normalised losses: [1.0404497385025024], Regularisation term values: [], param norm: 33.13555908203125, Learning Rate: 0.0001, len(model.parameters()): 104,
Epoch 10, Loss: 0.9627843499183655, Normalised losses: [0.9627843499183655], Regularisation term values: [], param norm: 5.442655563354492, Learning Rate: 0.0001, len(model.parameters()): 104,
…
